reit_model.pth (torch, 12326 bytes, 5 tensors)

fc1.weight f4 [64, 4]
00000000: e2fd 81be 1b0f 36bd 19a8 e53d b15e 3a3e
00000010: ce70 d3be b8ec edbe fa86 863e 3e33 3abe
00000020: b7f0 2dbc 156b 32be 86cf 8e3e 7d60 d2be
00000030: 073b 17be 8f73 0c3e c399 95bc a291 7ebe
00000040: b415 b53e 3847 dc3e 859b be3d 8d4a f6bb
00000050: c02f 34be 011b 59be b124 f6be 0746 973e
00000060: 45ab adbe e2af 39be cb2b cd3e ff04 fd3d
00000070: cfd4 e7be d42e c1be b5db bcbe 7a86 293e
00000080: 4f2c 75be ac04 da3e 938c 3abe 6556 67bd
00000090: 352e 723e bea3 bd3e 69b0 b3be 78e9 c33e
000000a0: 1202 e3be 2877 f3bd dc0a 0dbe d328 9dbd
000000b0: 4a6d ac3d 7555 993e 9703 8ebe 05b9 22be
000000c0: 8b22 e1be d91e 4a3e de58 5abd 519c 563e
000000d0: 1f5c 053f 8add e43e 24d7 d83d ba95 bb3e
000000e0: 3707 0b3c 9397 45bd bc89 503e 7ee6 e23c
000000f0: 5db2 10be d8e9 033e 4815 4b3e 48d6 7d3e
00000100: 931a a3be 516c 283e 6a55 6c3e 8cbd a93e
00000110: df34 f3be 6692 7e3e 5ea8 aebe 253a ba3e
00000120: 61d7 21be 8429 f43e e8b7 46be cc03 d7be
00000130: 266e 943e 26d7 4ebe feba bb3d 412d 5dbd
00000140: 1f33 043f 9b93 a9be 79ec e7bd 89fb 893d
00000150: ca74 2f3e 8d24 963e f097 1bbe 40ac d4be
00000160: 876b 4d3e 786a 713e 1cd5 1f3d e0b2 c0bd
00000170: aef0 e9be 3e28 213e aebc 983d 8a15 e13e
00000180: 769a f63e c070 4ebd 34de 86be 2983 febd
00000190: 394a 62be 65bb 813e 33a6 b5bd 264c 203e
000001a0: 8bf7 7cbe df71 323e c3b1 66be 25f5 a8be
000001b0: 1be1 fbbe fdcd e0be 9851 94be 9147 50bc
000001c0: 61d9 9b3b ef17 33be 17bc ce3e b6c8 27be
000001d0: 0e42 e0be ac68 ebbe c4f4 3cbe 6074 313e
000001e0: 6330 05bd cbb2 28bd fc03 91be 834d 563d
000001f0: 4cf1 90be d74f 8f3e d3ff 95bd 008f eebe
00000200: 753d f33e edaf a0be 187b 763e d558 0d3d
00000210: 6dc5 b53e a9ae 0d3d 00cb 8dbe 4837 2b3e
00000220: 8f92 833e ac88 d03e 2e2f 99be 09ec 02bd
00000230: a955 c43e ffec d93d 175f e7be cd0d 9abe
00000240: eb70 083e e2b9 8e3e b5fc 92be 8797 97bd
00000250: fca3 c63e 06a0 333d e850 4a3d 4edc 933e
00000260: ec24 e73e fb8a dd3d 036e debe 2810 8fbc
00000270: 8dd1 f33e fc11 9e3e 3d89 85be 339d 1c3d
00000280: 553c 873e db4d 9cbe d245 08bd f8bb 7bbe
00000290: e7b0 c9be a781 9bbe f4ac ed3e 95d2 0dbe
000002a0: 2f0b 6fbe df34 b6bd ba3e c73d 4412 24be
000002b0: b4f0 b73e 37b7 c93e 8620 c3be 16ba 9bbe
000002c0: e5db b03e a791 eebe b885 0c3d 3800 a73e
000002d0: 4eb1 753e 94c1 9dbe 8151 543e b9b3 d73e
000002e0: 4d33 793e 0bae 8a3c 2024 ddbe 58c0 2abe
000002f0: 2b5f 1ebd 74ad d73e f277 a53d a9e1 cfbe
00000300: b23f ea3d 3cc4 c7be b96f dfbb be48 aebe
00000310: c2a3 66be 320c 7bbe acce 77be d6c5 ce3e
00000320: d985 eb3c c616 373e f398 b83e 6846 c33e
00000330: ad09 1d3e 4b6c 863a e879 783e 0446 f8bd
00000340: 018e 353e e6b7 95ba 26ad c0be bdf9 e0bc
00000350: 429c c13e 9344 8ebd 002f 313e ad93 debe
00000360: 39d6 d5be 2471 92be 309e 173d 6df2 b0bd
00000370: 9fd0 aebe 16be 59be 17b6 cebd 12d6 8dbe
00000380: 88dc 543d 960d d2be 313c 423e 32e4 a7bd
00000390: 69d5 3a3d a6d7 f9bd 91bb d4be d7dc ab3d
000003a0: f4d8 53be 3030 ba3e 37ea 0cbe 158f f43e
000003b0: a926 fcbd de38 67be 8a55 9fbd f9fd d6be
000003c0: 52cf 22bd 5033 ed3e 6add 073e 4a4b d03d
000003d0: 32eb c4bc 09f0 a73e 7c9d 15be 4085 3e3d
000003e0: a106 bdbe f0d3 dc3e 05ec b8bd f9ed cf3d
000003f0: 9eca f73d b67c 1cbe df7a a23e dcc3 ad3e
-0.2538901 -0.044448 0.11213703 0.18200184 -0.41297 -0.46469665 0.26274854 -0.1818361
-0.010616473 -0.17423661 0.27892703 -0.4108924 -0.14768611 0.13715957 -0.018261796 -0.24860242
0.3536812 0.43023086 0.09307007 -0.0075162114 -0.1759634 -0.21201707 -0.48074868 0.29545614
-0.3391973 -0.181335 0.40072474 0.123544686 -0.45279548 -0.3773104 -0.36886373 0.16555205
-0.23942684 0.4258169 -0.18217687 -0.056478877 0.23650439 0.37038988 -0.35095528 0.3826406
-0.44337517 -0.118879616 -0.13773674 -0.07673802 0.08419283 0.2994801 -0.27737114 -0.15890892
-0.43971667 0.1973833 -0.053307407 0.20958067 0.5209369 0.4470027 0.1058791 0.3663767
0.008485607 -0.048240256 0.20365041 0.027697798 -0.1413054 0.12882173 0.19832337 0.24788773
-0.31856212 0.1644757 0.23079458 0.33152425 -0.47501275 0.24860534 -0.3411283 0.36372486
-0.15804817 0.47687924 -0.19406092 -0.41995084 0.28990287 -0.2019926 0.09166525 -0.053998236
0.51640505 -0.33120427 -0.113244005 0.0673743 0.17134395 0.2932476 -0.15194678 -0.41537666
0.2006055 0.23575771 0.039021596 -0.09409118 -0.45691437 0.15738007 0.07457863 0.43961746
0.4816472 -0.050400496 -0.26341403 -0.124273606 -0.22098626 0.25338283 -0.088695906 0.15654048
-0.24703805 0.17426251 -0.22528748 -0.3299953 -0.4919518 -0.43907157 -0.289685 -0.012712375
0.004756138 -0.17489599 0.40377876 -0.16385159 -0.43800396 -0.45978296 -0.18452746 0.1732955
-0.03251685 -0.041186135 -0.28323352 0.052320015 -0.28309095 0.279906 -0.07324185 -0.46593475
0.47507825 -0.3138422 0.24070394 0.034508545 0.35502186 0.034590397 -0.2769394 0.16720307
0.25697753 0.40729272 -0.29918808 -0.031963382 0.38346604 0.106409065 -0.45189735 -0.30088654
0.13324325 0.27876192 -0.28708425 -0.074019484 0.38796985 0.043853782 0.049393564 0.28879017
0.45145357 0.10817524 -0.43443307 -0.017463759 0.47620812 0.30873096 -0.26081267 0.038235854
0.26413217 -0.3052815 -0.03326971 -0.24583423 -0.39392778 -0.30372354 0.46421015 -0.13849862
-0.2334411 -0.08896803 0.09728761 -0.16022593 0.3592583 0.39397594 -0.3811075 -0.3041541
0.34542766 -0.465955 0.03430721 0.32617354 0.23993418 -0.3081175 0.20734216 0.42129305
0.24335976 0.016928693 -0.43191624 -0.16674936 -0.038664978 0.42124522 0.080795184 -0.40601853
0.1143793 -0.39016902 -0.0068187383 -0.34039873 -0.22523406 -0.24516371 -0.24199933 0.40385312
0.028750347 0.17879781 0.3605419 0.38139653 0.15335722 0.0010255662 0.24265254 -0.121227294
0.17729951 -0.0011422604 -0.37632102 -0.027462834 0.37814528 -0.06946673 0.17303085 -0.43472043
-0.41765 -0.28601944 0.037016094 -0.08639989 -0.3414354 -0.21263918 -0.10093325 -0.27702385
0.051968127 -0.4102599 0.18968274 -0.08197822 0.04561368 -0.12199335 -0.41549352 0.08391731
-0.2068823 0.3636489 -0.13761221 0.47765413 -0.12312061 -0.22580287 -0.07779987 -0.4199064
-0.039748497 0.4632821 0.13268057 0.1017061 -0.024037931 0.3280032 -0.14610857 0.046513796
-0.3691912 0.43130445 -0.09029392 0.101528116 0.12099193 -0.15281948 0.31734368 0.3393849

fc1.bias f4 [64]
00000000: bdc0 e93e 7dad fd3e 08f7 f0be fdbb 2abe
00000010: 72b9 64be 4d33 253e 9aed eabe f9d8 f7be
00000020: 7419 eabe 644a cd3e 46ad 8abe bebc 803e
00000030: c979 283e edc0 f2bd cad1 d9be ce67 763e
00000040: 8e0f d9be 1307 bfbe fd94 c83e b428 4c3e
00000050: 06e9 ac3e 0bc7 fa3d 3741 6bbe 3e57 bd3e
00000060: 014b 0c3d 6479 06be 8267 dcbe 011b 97be
00000070: 2094 6ebd eca2 a63e bbdb 85be 8af0 ba3e
00000080: ad58 ad3e 0c09 7b3e 357f b3bc 8890 a1be
00000090: 4f15 4e3d 482f 04bf 7106 063e 686b a43e
000000a0: 5547 c53e a679 d8be 3672 b13e 2a06 943b
000000b0: 8dd9 da3e fd98 9dbe 47a3 013f e173 d03e
000000c0: bea0 acbe adc4 bcbe 37b8 6f3e 7564 f03e
000000d0: d0c3 2e3e 2872 813e f1f8 313e 1d17 47be
000000e0: 20a5 813e 3490 893e 6daf d0be 05bd 9c3e
000000f0: 92bd 883d f880 64be b7e8 0b3e 9238 90be
0.4565486 0.49546424 -0.4706347 -0.16673274 -0.22336367 0.16132851 -0.458844 -0.48407724
-0.45722544 0.40095818 -0.27085322 0.25144 0.16452707 -0.11853204 -0.4254287 0.24063036
-0.4239468 -0.37310085 0.3917617 0.19937402 0.33771533 0.12244996 -0.22974096 0.36980623
0.034251217 -0.13132244 -0.4304772 -0.2951279 -0.05824673 0.32546175 -0.26144204 0.36511642
0.33856717 0.2451517 -0.021911243 -0.3155558 0.05031329 -0.51634645 0.13088395 0.32113194
0.38530985 -0.4228031 0.3465745 0.0045173364 0.42744103 -0.30780783 0.50639766 0.4071341
-0.33716387 -0.36868802 0.23410116 0.46951643 0.17066884 0.25282407 0.1738012 -0.19442411
0.25321293 0.2686783 -0.4075884 0.3061296 0.06676783 -0.22314823 0.13662992 -0.2816816

fc2.weight f4 [32, 64]
00000000: 5ae4 cfbd 6b24 8cbd a090 5e3b ce7f 8fbb
00000010: 8180 0abe a229 3fbd bb46 023d 33dc 1e3d
00000020: bc4d b4bc 3c82 e33c 9144 093d d751 223d
00000030: 0694 983d 18c1 6d3d 4afc 803d e28e 07bd
00000040: cf58 ac3d 14a2 15bd bbcc a03d 024c 343c
00000050: 6b5d 02be 987d 8e3c 5b58 fb3c f9fc 5cbd
00000060: e18e ccbd b97c 0bbe 44cd bebd 2f6e 81bc
00000070: 061a 843d 80de e5bd f52f c03d 17b9 f5bd
00000080: 2646 303d accb 4c3c d839 4a3d cf5a 10be
00000090: 66dd 38bc d18a bcbd 1039 c83b 4d89 223c
000000a0: 17d5 c1bd 204b 873d 0b99 ccbd e17f 823d
000000b0: 26e4 b93d 694e 7b3c a282 59bd 33ea f6bc
000000c0: eab8 f43c 77d4 fbba 1415 0fbd a054 0bbd
000000d0: b3e2 743d 6f53 97bd 8b9d 48bd 2f11 473d
000000e0: da7b 8e3d 49b1 d73d 9d4b a2bd 7339 64bd
000000f0: 852b 88bd 3197 84bd d63e d6bd 6f10 863d
00000100: b2c8 cabc c9c3 c53d a569 05bd 2ed0 c5bc
00000110: 4931 f93d 62df 433c daa9 fbbd d10d e73d
00000120: 1eb2 fc3c 8b78 4c3c 5f5a 84bd bd60 ed3c
00000130: 3bb4 1cbb 8e46 593c e4da bf3d d81e d23d
00000140: 63d3 c63d fe06 8ebd 2b10 6cbc b4c0 b43d
00000150: 3b9a 713d 08e8 d0bd c422 d5bd 7f74 ce3d
00000160: 2117 043e 3906 7abd 77db 99bd 4c22 9b3d
00000170: 022f e0bc a33a 30bd 971a 0cbd 9d80 e83c
00000180: 6cc2 9ebc 858b abbd b1ee b83d e6ea 81bd
00000190: 9879 ed3d 78ea 9abd f32a 00bd 36e2 5a3d
000001a0: 02ea 84bd 5732 06be 7a5c a7bd 1e37 0e3e
000001b0: 83f3 0bbc 9042 433c 88e1 03ba 8847 f13d
000001c0: ff17 053d 7ba7 fa3d 9c8a d33d dca3 7fbb
000001d0: 2daa bfbd c714 e03d 92c9 81bd cf5c bdbd
000001e0: 5c60 9bba 00f0 083e ad29 36bd b8bb f3bc
000001f0: 27d3 b83d c797 563d 8a58 71bd 7f46 9cbd
00000200: 4ee8 ed3d 78d5 9c3c a5a1 c13c fa2a fabd
00000210: 34bf b2bc a952 d9b9 44b4 5d3d caea e1bd
00000220: db7e 97bc c2e9 aa3d 6ad6 d3bd 4090 1fbd
00000230: 4fcd 50bd 1ecb 89bd 4559 7ebd 67b6 77bd
00000240: a911 85bd 9a50 113c 3fed 213c 94bd bb3d
00000250: cc7b 84bd 3f56 9abd 467e 893d bf16 023e
00000260: 8ac0 ccbd 614c 3e3d 792f d83d db94 cdbd
00000270: ea8b 9d3d 9239 29bc 4cd1 2dbd ede7 d93d
00000280: 7e5c 55bd dccb 7e3c 7b07 833d 3a75 5b3d
00000290: 6c46 9b3b 6bf9 a43d ce6b bbbd bb6a 083e
000002a0: 9436 85bd 3328 05bd 9257 a73d c8e7 fcbb
000002b0: 5940 70bd 07f4 8e3d 0c30 72bd 1559 193d
000002c0: 4875 923d 326f b73c b353 023e 0eef 1fbd
000002d0: d8af 213d 6f39 91bd 33e0 50bd 0e38 07bc
000002e0: b44a 8b3d 8360 d93d 7720 eb3d aeca efbd
000002f0: 68f7 da3d bb91 4b3d 71d5 c4bd 1410 f7bd
00000300: 97cf 913d 263a 1f3d 00c5 bbbd e0db b6bb
00000310: 9c87 cebd 4e9b afba 6cfd fc3d f14d 6bbd
00000320: db22 373d 5b71 94bd 7f07 c6bd 792f 07be
00000330: 241f ca3d 41a4 e53d 6047 cfbd d695 67bd
00000340: 2442 65bd 9410 bc3d 0f20 293d 6344 3c3b
00000350: 568c e0bd d09f ccbd 372c e83d 2287 d9bd
00000360: eb53 6e3c 8aa8 e23d 7b66 b73d 9ea8 b33d
00000370: f614 d83b ad85 9b3d 6a40 ccbd bc41 e4bd
00000380: 58a4 25bd 4f49 503d f016 d73d 047a 77bc
00000390: f137 643d e2a4 6c3d 1852 cfbc 81da b4bd
000003a0: 8bd8 07bd a718 75bd 6f1e cbbd 6685 eb3c
000003b0: 3569 70bd f9b2 203b c390 d0bd 9258 c83c
000003c0: 514f b03d 2797 933d 18ad 3abd 1241 f43c
000003d0: dfe7 0bbe 31d5 42bd 6e2a 05bd b798 73bc
000003e0: cd79 663d c45b 4f3d ca49 893d 417c 993d
000003f0: 0a60 803d a0c0 c53d 65b2 f3bd 2612 e03d
-0.101509765 -0.06842884 0.0033960715 -0.004379249 -0.13525583 -0.046670564 0.031805735 0.038784217
-0.022009723 0.027772062 0.033512656 0.03962883 0.07450108 0.058045477 0.0629812 -0.033095248
0.084153764 -0.036531523 0.07851549 0.01100445 -0.12730949 0.017393872 0.03068178 -0.05395219
-0.099881895 -0.13621797 -0.09316495 -0.01579961 0.06450276 -0.11224079 0.09384147 -0.11998194
0.04303565 0.012499731 0.04937157 -0.1409714 -0.011283254 -0.09206165 0.006110318 0.00992043
-0.09464472 0.06606126 -0.09990128 0.06372047 0.09076719 0.015338519 -0.053103097 -0.030140972
0.02987333 -0.00192131 -0.03493221 -0.03401625 0.05978651 -0.073889606 -0.04897837 0.048600372
0.069572166 0.10531861 -0.07924578 -0.05571885 -0.06648926 -0.0647415 -0.10461204 0.06546103
-0.024753902 0.09656484 -0.032571454 -0.02414712 0.121676035 0.011955114 -0.12288256 0.11281932
0.030846652 0.012479912 -0.064625494 0.028976792 -0.0023911137 0.01326145 0.09367922 0.10259789
0.097082876 -0.069349274 -0.014408152 0.08825818 0.058984976 -0.102005064 -0.10407022 0.100808136
0.12899448 -0.06104109 -0.07512563 0.07574901 -0.027366165 -0.04302467 -0.034205046 0.02838164
-0.019379817 -0.083762206 0.09029902 -0.063436314 0.11595458 -0.075642526 -0.03129096 0.053438388
-0.06489946 -0.1310514 -0.081719354 0.13888213 -0.008541944 0.011917725 -0.000503086 0.11781222
0.032493588 0.122389756 0.10329172 -0.003900758 -0.0935863 0.10941463 -0.063372746 -0.092462175
-0.0011854279 0.13372803 -0.04447334 -0.029752597 0.09024649 0.05239084 -0.058922328 -0.076306336
0.11616574 0.019144759 0.023636648 -0.122152284 -0.021819688 -0.00041451052 0.054126993 -0.110311106
-0.018493107 0.08345367 -0.103436306 -0.038955927 -0.050977048 -0.06728195 -0.062096853 -0.060476687
-0.06497509 0.008869315 0.009883224 0.091670185 -0.06468925 -0.075359814 0.06713538 0.1270399
-0.099976614 0.04645956 0.1055593 -0.100381576 0.07692702 -0.010328667 -0.04243593 0.106399395
-0.05209016 0.015551534 0.06397911 0.053578593 0.0047386196 0.08055385 -0.091514215 0.13321964
-0.065045506 -0.03250904 0.081709996 -0.00771806 -0.058655117 0.06980138 -0.059127852 0.03743847
0.07151276 0.02239189 0.12727241 -0.03904634 0.03947434 -0.07091033 -0.050995063 -0.008253111
0.06801358 0.10614111 0.114808016 -0.1170858 0.1069172 0.049699526 -0.09611023 -0.120636135
0.07119673 0.038873814 -0.09168434 -0.0055804104 -0.10084459 -0.0013397725 0.12353024 -0.057447378
0.044710975 -0.07248183 -0.096693985 -0.13201703 0.09869221 0.112129696 -0.101210356 -0.05653938
-0.05597128 0.091828495 0.04129034 0.0028727285 -0.10964267 -0.09991419 0.11336558 -0.10621478
0.014546375 0.110673025 0.089550935 0.087723956 0.0065942956 0.07593856 -0.099732235 -0.1114535
-0.040439934 0.050851163 0.10502422 -0.015104774 0.055717412 0.057774432 -0.0253077 -0.08830739
-0.033165496 -0.059837963 -0.09917914 0.028750133 -0.058694083 0.0024520739 -0.10183861 0.024456296
0.086088784 0.072065644 -0.04557523 0.029816184 -0.1366267 -0.047566596 -0.032511167 -0.014867953
0.056268502 0.050624624 0.06703527 0.07494403 0.06268318 0.09655881 -0.118992604 0.109409615

fc2.bias f4 [32]
00000000: 7f90 ffbc 490c ce3d f80a ef3d 7910 6c3d
00000010: 178d c2bd 6687 7abd 3b4e 55bd 28f6 d53d
00000020: ad94 283b c5d4 a13d 83dc 3bbd 8caa 4e3d
00000030: 54f4 e4bd 57db 303c 2d81 1dbd 5a02 d63d
00000040: d61b 703d c721 c53d b9ef 95bb 094e d43d
00000050: 0268 813c 02f6 2dbd 6ca7 b93d 932e da3d
00000060: 2f03 653d 9df5 fe3d d99e 4a3d 58d8 133d
00000070: d67a 403d 0bb1 db3c a714 d4bc a802 3a3d
-0.03119683 0.10060937 0.11672014 0.057632897 -0.09499567 -0.061164282 -0.05207656 0.10447341
0.0025723383 0.07901911 -0.045864593 0.050455615 -0.111794144 0.010794482 -0.03845327 0.10449667
0.058620296 0.09625583 -0.0045756963 0.103664465 0.015796665 -0.04247094 0.09065136 0.106534146
0.05591124 0.12449191 0.049467895 0.036094993 0.046992145 0.02681782 -0.025888754 0.04541269

fc3.weight f4 [1, 32]
00000000: 113a 14be feb9 393e 257e f33d fff0 aebd
00000010: 1c04 bfbd d974 f7bc ef68 893c 8837 98bd
00000020: 9fef d13c 8670 7f3d 729f 7f3d 220e 343d
00000030: 495a 03be d829 563d be52 9d3b 55fd d3bc
00000040: 64fe 233d ae5e e53d ae70 093e 1474 13be
00000050: 547e 9dbc 3e4f 0e3e 002e 1abe 09a7 cd3d
00000060: 0336 09be a341 093e 0ce4 15be 3aa4 31bc
00000070: c2b9 c13d 0eeb 0dbd 23ac 68bb 5752 363e
-0.14475276 0.18137357 0.118892945 -0.0854206 -0.09326956 -0.030207084 0.016773669 -0.07432467
0.025626956 0.06236317 0.06240792 0.04395879 -0.1282741 0.052286 0.0048011234 -0.025877634
0.040037528 0.11199699 0.1342189 -0.14399749 -0.019225277 0.13897416 -0.1505661 0.10041625
-0.1339951 0.13403945 -0.14637774 -0.010842377 0.094592586 -0.034647994 -0.0035502992 0.17804848
