reit_model.pth (torch, 12326 bytes, 5 tensors)

fc1.weight f4 [64, 4]
-0.19463311 0.008198524 0.2943191 -0.4480745 -0.09576239 0.4152175 0.11773156 -0.33868465
0.06107802 0.04964816 -0.35634616 -0.43835017 0.33413452 -0.19966349 -0.03001871 -0.49365798
0.010797822 -0.46181035 -0.46950498 -0.2764882 -0.27095634 -0.26593524 0.17681013 -0.21216676
0.06943952 -0.30105618 0.14334361 -0.22259031 0.24443677 -0.12504224 0.01588077 -0.07387906
0.14354184 0.381036 0.16185129 0.19419686 -0.1982094 -0.4608588 0.47748536 -0.391891
0.049543932 0.36486557 -0.29110062 0.16615038 -0.46842957 -0.21834376 0.4103655 0.36173266
0.019542104 -0.014436237 0.18574245 -0.14262046 -0.19025172 0.44407195 0.20186527 0.26121137
0.4947461 -0.15548842 0.13053367 0.36446255 -0.38949835 -0.43148553 0.16179958 -0.23695356
-0.29568842 -0.09691664 -0.036793724 0.40548834 -0.42460674 0.41666934 0.43668762 0.036756758
-0.21851234 -0.35870036 -0.023045043 0.39175543 -0.4415449 -0.24194607 0.14055042 -0.304824
0.16654447 0.43614727 -0.096801765 -0.18535565 0.31838736 -0.3986726 -0.093865044 -0.2766143
0.4527599 0.5070016 -0.07857382 0.45040056 0.24164268 -0.10131556 0.21788497 -0.025285956
-0.14645863 0.3551351 0.38010958 -0.29983827 0.40383714 0.1832803 -0.2885467 -0.44076365
0.23169565 -0.15030997 0.23467949 0.034253255 0.03179275 -0.26957938 -0.04240776 -0.10676656
0.27340966 -0.009071629 0.37470335 0.5018388 0.25817615 -0.47414508 0.16003846 0.37057242
0.12040833 0.28852567 0.27391866 0.2978376 0.45276266 -0.15644106 -0.43848374 0.473039
0.5071359 -0.45886323 0.28717932 0.09000664 0.13629128 -0.32002512 -0.08116599 -0.43297487
-0.45118508 -0.17040965 0.17411663 0.21693279 -0.055675972 0.12051986 -0.45474213 -0.08136423
-0.25960755 0.44688377 0.023946129 0.32411313 -0.38385138 -0.36766937 0.06303038 -0.30667156
-0.1389682 0.057383277 -0.042377293 0.35027993 0.3769037 -0.05217382 -0.45234102 0.115923025
-0.2856175 -0.32794195 -0.14083916 -0.016735513 -0.16542348 -0.09892086 0.35676128 0.26695675
0.022605095 0.44684795 0.12425492 -0.03922102 0.4188912 0.08435442 -0.1815038 -0.21196039
-0.3735934 -0.05198161 -0.32749334 -0.14576294 -0.02796981 -0.35823217 -0.44070002 -0.02268439
-0.40152165 -0.41922975 -0.41185057 -0.23771198 -0.22215307 -0.054938253 0.3711013 -0.17260526
0.19403216 0.053132728 -0.2540258 0.06523831 -0.2539166 -0.26285052 -0.045926526 -0.052235402
-0.1571481 0.1029644 -0.26982734 -0.2869053 0.3614031 0.24884126 -0.120871074 -0.23068157
-0.007832332 0.24385548 -0.023946853 -0.22113052 -0.26944065 0.30863708 -0.11858626 -0.3660867
0.3211388 -0.29096535 -0.3840487 -0.17694364 -0.026783258 -0.16565117 -0.14147414 0.18566407
-0.4423368 0.021758707 -0.15102345 0.4193132 0.43796194 -0.47817805 0.2277911 -0.096260265
0.39325273 -0.23582119 -0.3784288 0.40859124 0.21158479 -0.08784334 0.27437213 0.022107674
-0.4363404 -0.12861776 -0.10944321 -0.053469423 -0.38574255 -0.3053521 0.42359957 0.1096261
0.06663908 0.2497094 -0.42631036 0.34614065 -0.08217196 -0.5057113 -0.45879835 0.022910155
00000000: e74d 47be 1a53 063c feb0 963e 056a e5be
00000010: 121f c4bd 6397 d43e 3e1d f13d 1368 adbe
00000020: f22c 7a3d de5b 4b3d 0173 b6be 6f6f e0be
00000030: ae13 ab3e 9674 4cbe cce9 f5bc bdc0 fcbe
00000040: 59e9 303c 6872 ecbe f562 f0be dd8f 8dbe
00000050: caba 8abe aa28 88be b70d 353e 3e42 59be
00000060: 4f36 8e3d 0924 9abe abc8 123e b7ee 63be
00000070: a24d 7a3e 130b 00be 6318 823c e84d 97bd
00000080: a2fc 123e 2717 c33e 58bc 253e 8bdb 463e
00000090: 68f7 4abe aff5 ebbe f678 f43e f0a5 c8be
000000a0: 94ee 4a3d a9cf ba3e 240b 95be 5323 2a3e
000000b0: 00d6 efbe 8295 5fbe 6d1b d23e 0635 b93e
000000c0: c316 a03c f785 6cbc 4533 3e3e 190b 12be
000000d0: 59d1 42be 665d e33e c5b5 4e3e 7fbd 853e
000000e0: 5c4f fd3e 5b38 1fbe 9eaa 053e d69a ba3e
000000f0: 546c c7be aceb dcbe caae 253e f4a3 72be
00000100: 7964 97be 3b7c c6bd 04b5 16bd 2b9c cf3e
00000110: 0e66 d9be af55 d53e 8595 df3e 418e 163d
00000120: b3c1 5fbe 93a7 b7be f5c8 bcbc 2b94 c83e
00000130: 2c12 e2be b6c0 77be 73ec 0f3e e411 9cbe
00000140: a28a 2a3e b24e df3e 0140 c6bd dfcd 3dbe
00000150: ab03 a33e d11e ccbe 513c c0bd 64a0 8dbe
00000160: 25d0 e73e dbca 013f 50eb a0bd e79a e63e
00000170: 2e71 773e 887e cfbd 3d1d 5f3e 7e24 cfbc
00000180: 40f9 15be 45d4 b53e b99d c23e 6784 99be
00000190: bec3 ce3e d5ad 3b3e 65bc 93be c6ab e1be
000001a0: a041 6d3e dbea 19be d24f 703e 244d 0c3d
000001b0: 1d39 023d 4f06 8abe c2b3 2dbd 6da8 dabd
000001c0: 5afc 8b3e 2ba1 14bc 1ed9 bf3e 8278 003f
000001d0: aa2f 843e 25c3 f2be 1fe1 233e abbb bd3e
000001e0: a498 f63d a3b9 933e 113f 8c3e 2b7e 983e
000001f0: 82d0 e73e 1632 20be f180 e0be 2b32 f23e
00000200: a9d3 013f 1ff0 eabe 2b09 933e 6755 b83d
00000210: f18f 0b3e 55da a3be 5b3a a6bd e2ae ddbe
00000220: bb01 e7be de7f 2ebe a14b 323e a123 5e3e
00000230: 7d0c 64bd 1ed3 f63d f6d3 e8be 4aa2 a6bd
00000240: 48eb 84be f3cd e43e ac2a c43c 28f2 a53e
00000250: 2b88 c4be 293f bcbe 1216 813d 0e04 9dbe
00000260: ae4d 0ebe ba0a 6b3d d093 2dbd e457 b33e
00000270: 86f9 c03e 37b4 55bd 3e99 e7be 0d69 ed3d
00000280: 753c 92be 02e8 a7be 2438 10be ea18 89bc
00000290: c664 29be 0597 cabd 6aa9 b63e 8eae 883e
000002a0: 522e b93c 41c9 e43e 5d79 fe3d 38a6 20bd
000002b0: e878 d63e 03c2 ac3d 22dc 39be 250c 59be
000002c0: a247 bfbe abea 54bd 35ad a7be e142 15be
000002d0: f120 e5bc 356a b7be 6fa3 e1be 9dd4 b9bc
000002e0: 3f94 cdbe 48a5 d6be 14de d2be c56a 73be
000002f0: 187c 63be ef06 61bd fd00 be3e 6fbf 30be
00000300: 5eb0 463e b4a1 593d ab0f 82be aa9b 853d
00000310: 5b01 82be 5894 86be 741d 3cbd caf4 55bd
00000320: 6eeb 20be 00df d23d cf26 8abe 40e5 92be
00000330: d409 b93e 3ed0 7e3e 418b f7bd ca37 6cbe
00000340: 2e53 00bc 40b5 793e 312c c4bc 0a70 62be
00000350: 20f4 89be ae05 9e3e 5add f2bd b76f bbbe
00000360: 4e6c a43e 69f9 94be 08a2 c4be b730 35be
00000370: 9068 dbbc 76a0 29be 99de 10be b91e 3e3e
00000380: f879 e2be 513f b23c e4a5 1abe 38b0 d63e
00000390: 8c3c e03e c1d3 f4be 1242 693e 1a24 c5bd
000003a0: 6c58 c93e 1c7b 71be 6bc1 c1be df32 d13e
000003b0: afa9 583e 36e7 b3bd 817a 8c3e 271b b53c
000003c0: 0268 dfbe 60b4 03be c323 e0bd c102 5bbd
000003d0: 0c80 c5be 1c57 9cbe 0be2 d83e a683 e03d
000003e0: 127a 883d d2b3 7f3e 5a45 dabe 5939 b13e
000003f0: c649 a8bd 4c76 01bf 9ee7 eabe 14ae bb3c

fc1.bias f4 [64]
-0.04894812 0.37141097 -0.39657724 -0.2618438 -0.47056565 0.4819753 0.13727258 0.4650202
0.21716696 0.10083314 0.39210537 -0.0026115035 0.15278351 0.372998 -0.13223615 -0.24836873
0.41646516 -0.12710759 0.47038388 0.035221707 0.10797402 0.46073517 -0.27505028 0.06668647
-0.35158822 0.002064599 -0.06200547 -0.3384544 0.17606919 -0.24040976 0.4493429 0.21185867
-0.2212838 0.19777225 0.050843988 -0.47020692 -0.376694 -0.2397695 -0.45200124 -0.134923
0.010635805 0.49130842 -0.31676313 -0.1631898 -0.3357567 -0.13576467 -0.3267578 -0.13603349
0.09421336 -0.454013 0.39910826 0.23428586 -0.34049872 -0.022126468 -0.21653838 0.3899526
-0.06125076 -0.48675808 -0.2266908 0.2971178 0.32173243 0.28473952 0.15766773 -0.0043062787
00000000: d37d 48bd 9429 be3e 2c0c cbbe 6410 86be
00000010: fbed f0be 77c5 f63e 2f91 0c3e 2117 ee3e
00000020: 0461 5e3e 9b81 ce3d 09c2 c83e c225 2bbb
00000030: 4873 1c3e 98f9 be3e ea68 07be 5f54 7ebe
00000040: ec3a d53e 7e28 02be 28d6 f03e a344 103d
00000050: 7c21 dd3d 7be5 eb3e 64d3 8cbe ea92 883d
00000060: 5f03 b4be 394e 073b 73f9 7dbd e549 adbe
00000070: 7b4b 343e fa2d 76be 4610 e63e 7bf1 583e
00000080: 3898 62be cf84 4a3e c941 503d f6be f0be
00000090: 09de c0be 2386 75be b56c e7be 4129 0abe
000000a0: cd41 2e3c c78c fb3e c72e a2be 3a1b 27be
000000b0: 4de8 abbe e505 0bbe cc4c a7be 5d4c 0bbe
000000c0: eff2 c03d 6474 e8be eb57 cc3e a2e8 6f3e
000000d0: d955 aebe 9142 b5bc 3dbc 5dbe dea7 c73e
000000e0: 14e2 7abd 5b38 f9be a221 68be d31f 983e
000000f0: 1dba a43e 61c9 913e a673 213e af1b 8dbb

fc2.weight f4 [32, 64]
0.01646535 0.07314656 0.019873139 0.014908637 -0.11375341 0.0912203 0.047130745 0.080564566
0.023621785 -0.05465586 -0.009758786 0.056294978 -0.11047181 -0.039849274 0.06971646 0.017049165
0.03709478 -0.09141608 -0.0024292793 0.12656589 0.04585131 0.077942915 -0.06153565 -0.09365468
-0.054877996 -0.087997876 -0.059501037 0.057482626 0.043719757 0.12200655 0.098220095 -0.08955874
0.04854244 0.06444711 0.07219237 0.014872846 -0.07723182 0.061216474 0.07336058 0.015767626
0.13051942 -0.091138326 -0.0903404 0.032635644 0.047772717 -0.016956747 -0.077615425 0.082134515
0.07418612 0.10290545 -0.1299782 -0.017374147 0.09198457 -0.051089752 0.039574865 -0.04028336
0.03991211 0.032298066 0.08608925 -0.13703394 -0.07132457 0.042389844 0.051920593 0.09133542
-0.078501664 0.03894479 -0.09897074 0.08716908 0.07214917 -0.110013165 -0.010938764 0.04183103
-0.11027509 -0.008320979 -0.060914576 0.01867005 -0.0880633 -0.009205404 -0.022394702 -0.058954593
0.019148353 0.11462054 -0.080924556 -0.100599326 -0.035928596 -0.025712147 -0.13026518 -0.10091676
-0.030792097 0.11666866 -0.07157706 0.03377305 0.039281853 -0.047632992 -0.092467554 -0.0015647113
0.105260074 -0.011791915 -0.0960584 0.082982674 0.0016220126 -0.0033792749 0.013413325 0.060769305
0.07129787 0.051134303 0.080459416 0.0033630729 0.048682064 0.06551719 -0.0722896 0.021952897
-0.036907673 0.102681115 -0.025968434 -0.12699133 0.112965845 0.09536048 -0.110721365 -0.057354823
0.06029865 -0.06695381 0.12472387 -0.026693257 -0.08267767 0.013612059 -0.11083797 -0.0033390224
-0.07274946 0.0939107 -0.106425695 -0.04616493 -0.08053338 -0.13721801 -0.0032976372 0.060633708
-0.08797951 -0.06393046 0.011543075 -0.044221256 -0.12169714 0.031053344 -0.103478424 -0.065691344
-0.013354114 -0.07310156 0.03311587 -0.018413797 0.059394684 0.062476918 0.09370118 -0.14533585
-0.014329086 0.06121193 -0.06832487 0.11040641 -0.055842694 -0.104951315 0.033596948 -0.0934761
-0.13429742 -0.09483084 -0.10991722 0.033577897 -0.1342925 0.02398544 0.09514696 0.03251479
0.008443211 -0.12774093 -0.084454656 -0.11001327 -0.048656404 -0.022751946 0.076866895 0.0060814186
-0.0065319645 0.028405176 0.097429626 -0.09880909 -0.12701614 0.04308315 -0.0681223 -0.02501751
0.05563256 -0.08005772 -0.13871081 -0.0042171287 0.02614395 0.008511486 -0.033084035 0.08848605
-0.015887093 -0.09638964 0.047120087 0.11617243 -0.034222245 0.02974518 -0.11279239 -0.00078637345
-0.11316328 0.01822435 0.042146 -0.049902644 0.081220254 0.018088747 -0.089079455 0.0109461425
-0.00070093665 -0.05361747 -0.028844059 -0.109329954 0.037734795 -0.07644394 -0.0014303763 0.121826924
-0.08292069 -0.0624471 -0.043716285 0.05747778 0.12592646 0.12939411 -0.019880394 0.029503888
0.13987654 -0.10424105 0.1266782 0.06373712 -0.1164757 0.03975327 -0.062283944 0.14502056
0.03553548 -0.07195788 -0.022354353 -0.027954495 0.12999436 0.033784874 0.04278439 -0.011568118
-0.014565008 -0.0634689 0.0018221549 -0.05950093 0.015898578 -0.0071371538 -0.090685174 -0.06299962
-0.10587298 -0.064908184 0.0076025994 0.03270073 0.07281748 0.10355458 -0.07399426 0.06154299
00000000: 57e2 863c ddcd 953d fecc a23c 5b43 743c
00000010: 8cf7 e8bd b5d1 ba3d 2b0c 413d 09ff a43d
00000020: 7982 c13c d3de 5fbd 51e3 1fbc 9095 663d
00000030: 0b3f e2bd fe38 23bd 81c7 8e3d b1aa 8b3c
00000040: b2f0 173d 5b38 bbbd 8b34 1fbb 7d9a 013e
00000050: 95ce 3b3d 89a0 9f3d ce0c 7cbd 06ce bfbd
00000060: c0c7 60bd 3b38 b4bd 5cb7 73bd e772 6b3d
00000070: 7d13 333d 92de f93d 9e27 c93d 936a b7bd
00000080: 70d4 463d d9fc 833d 98d9 933d 3dad 733c
00000090: b72b 9ebd 20be 7a3d 123e 963d 1c2b 813c
000000a0: e2a6 053e bba6 babd 6304 b9bd f4ac 053d
000000b0: 53ad 433d e0e8 8abc d6f4 9ebd 2436 a83d
000000c0: e4ee 973d 18c0 d23d 0119 05be 3a54 8ebc
000000d0: 6862 bc3d 7d43 51bd 4119 223d 2a00 25bd
000000e0: e17a 233d fa4a 043d 904f b03d a052 0cbe
000000f0: 9e12 92bd f9a0 2d3d b0aa 543d 110e bb3d
00000100: 7bc5 a0bd 9284 1f3d 2cb1 cabd b485 b23d
00000110: f2c2 933d 954e e1bd 8038 33bc 0457 2b3d
00000120: e8d7 e1bd b754 08bc 9081 79bd eff1 983c
00000130: 885a b4bd 43d2 16bc 1875 b7bc 5f7a 71bd
00000140: 02dd 9c3c 2cbe ea3d c6bb a5bd 0507 cebd
00000150: dd29 13bd 48a2 d2bc 3c64 05be 72ad cebd
00000160: b53f fcbc faef ee3d fe96 92bd 9c55 0a3d
00000170: 02e6 203d d01a 43bd a15f bdbd 0017 cdba
00000180: 9892 d73d e032 41bc 44ba c4bd d2f2 a93d
00000190: b699 d43a d376 5dbb 90c3 5b3c 3ce9 783d
000001a0: 9e04 923d 3472 513d e8c7 a43d 0067 5c3b
000001b0: d866 473d e02d 863d 920c 94bd 90d6 b33c
000001c0: 802c 17bd 7a4a d23d c1bb d4bc 040a 02be
000001d0: a35a e73d 5b4c c33d e2c1 e2bd e4ec 6abd
000001e0: b8fb 763d 141f 89bd 3a6f ff3d d1ab dabc
000001f0: e952 a9bd 1d05 5f3c 05ff e2bd 80d3 5abb
00000200: abfd 94bd 4154 c03d b7f5 d9bd 7017 3dbd
00000210: afee a4bd e182 0cbe 2c1d 58bb 0d5b 783d
00000220: 9a2e b4bd f9ed 82bd 2a1f 3d3c 5921 35bd
00000230: 5a3c f9bd 9563 fe3c 7fec d3bd 2f89 86bd
00000240: 37cb 5abc 45b6 95bd 82a4 073d 88d8 96bc
00000250: d747 733d cce7 7f3d 67e6 bf3d ecd2 14be
00000260: 8bc4 6abc 5cb9 7a3d e9ed 8bbd c21c e23d
00000270: 4fbb 64bd b7f0 d6bd f49c 093d 6670 bfbd
00000280: 4385 09be ac36 c2bd 481c e1bd fa88 093d
00000290: f983 09be 1d7d c43c 69dc c23d 3a2e 053d
000002a0: 6555 0a3c 85ce 02be 90f6 acbd a34e e1bd
000002b0: f04b 47bd 4a62 babc 646c 9d3d a346 c73b
000002c0: 170a d6bb f9b1 e83c 2f89 c73d 6c5c cabd
000002d0: 8510 02be f577 303d b483 8bbd 85f1 ccbc
000002e0: f8de 633d 4df5 a3bd 350a 0ebe d72f 8abb
000002f0: d62b d63c c373 0b3c 2083 07bd 2d38 b53d
00000300: a625 82bc ee67 c5bd fe00 413d d0eb ed3d
00000310: a02c 0cbd 2aac f33c b2ff e6bd a124 4eba
00000320: 26c2 e7bd 3b4b 953c 49a1 2c3d b766 4cbd
00000330: ce56 a63d da2e 943c 4a6f b6bd 7357 333c
00000340: 10bf 37ba fe9d 5bbd 604a ecbc 62e8 dfbd
00000350: cd8f 1a3d a48e 9cbd 777b bbba 6580 f93d
00000360: 53d2 a9bd 88c8 7fbd d90f 33bd d26d 6b3d
00000370: def2 003e e47f 043e 35dc a2bc 23b2 f13c
00000380: cc3b 0f3e 557c d5bd eeb7 013e 9b88 823d
00000390: d08a eebd 53d4 223d 731d 7fbd 4580 143e
000003a0: a78d 113d a75e 93bd 7a20 b7bc d300 e5bc
000003b0: 3e1d 053e 0262 0a3d af3e 2f3d 3488 3dbc
000003c0: 12a2 6ebc fcfb 81bd 5fd5 ee3a 3fb7 73bd
000003d0: bc3d 823c c9de e9bb 26b9 b9bd f205 81bd
000003e0: efd3 d8bd 95ee 84bd 3a1f f93b 33f1 053d
000003f0: 5521 953d 6c14 d43d 4d8a 97bd 8114 7c3d

fc2.bias f4 [32]
-0.0528164 -0.0102620125 0.08795844 -0.00608056 0.11463714 0.039116137 0.018647134 0.06629077
0.10357328 -0.02811401 -0.03888851 -0.09506563 0.07495183 0.02702332 0.12602828 -0.085933045
0.03907701 0.08802608 -0.00068825285 0.023182329 -0.11481065 0.047828853 0.10132774 0.08122548
-0.09505752 -0.14172131 -0.059810854 -0.025344834 0.14055006 0.0716513 0.032908432 -0.089165606
00000000: 0256 58bd 0022 28bc 8e23 b43d 6f3f c7bb
00000010: e0c6 ea3d 3e38 203d e0c1 983c 75c3 873d
00000020: 3a1e d43d 5a4f e6bc 8f49 1fbd c5b1 c2bd
00000030: 5880 993d 0260 dd3c 8f0d 013e aafd afbd
00000040: 370f 203d 0447 b43d de6b 34ba dee8 bd3c
00000050: d921 ebbd 30e8 433d eb84 cf3d 8b59 a63d
00000060: 84ad c2bd 641f 11be 3afc 74bd f89f cfbc
00000070: 5bec 0f3e ebbd 923d feca 063d 759c b6bd

fc3.weight f4 [1, 32]
-0.1361379 -0.05894362 -0.06818948 -0.0719984 0.11096628 0.11785067 -2.7080274e-05 -0.030175403
-0.096222974 0.03803555 0.018134665 -0.067765914 -0.1060175 -0.11448517 0.117066085 0.099142864
0.03414496 0.1813123 0.11114751 0.17065798 -0.09847044 0.11626425 -0.11352983 -0.070434764
0.06717053 -0.07318175 -0.08726525 -0.14714746 0.02273012 -0.11812622 0.10802137 0.04837694
00000000: bc67 0bbe de6e 71bd eda6 8bbd e673 93bd
00000010: 4a42 e33d b15b f13d 722a e3b7 6832 f7bc
00000020: 8d10 c5bd 2acb 1b3d 268f 943c dbc8 8abd
00000030: b41f d9bd 3377 eabd 58c0 ef3d 6a0b cb3d
00000040: 96db 0b3d eea9 393e 4ea1 e33d f7c0 2e3e
00000050: dfaa c9bd f31b ee3d 5482 e8bd 1a40 90bd
00000060: b490 893d 50e0 95bd 20b8 b2bd d3ad 16be
00000070: 8434 ba3c 29ec f1bd 4f3a dd3d e626 463d
